…
<pre><code>/usr/local/lib/python3.11/dist-packages/colbert/utils/amp.py:12: FutureWarning: `torch.cuda.amp.GradScaler(args...)` is deprecated. Please use `torch.amp.GradScaler('cuda', args...)` instead.
  self.scaler = torch.cuda.amp.GradScaler()</code></pre>
</div>
</div>
<p><code>checkpoint</code> is our model:</p>
<div class="cell" data-outputid="d4e3ee56-c931-4512-c4e5-4e3b94ffeaa4" data-execution_count="52">
<div class="sourceCode cell-code" id="cb119" style="background: #f1f3f5;"><pre class="sourceCode python code-with-copy"><code class="sourceCode python"><span id="cb119-1">checkpoint</span></code></pre></div>
<div class="cell-output cell-output-display" data-execution_count="52">
<pre><code>Checkpoint(
  (model): HF_ColBERT(
    (linear): Linear(in_features=384, out_features=96, bias=False)
    (bert): BertModel(
      (embeddings): BertEmbeddings(
        (word_embeddings): Embedding(30522, 384, padding_idx=0)
        (position_embeddings): Embedding(512, 384)
        (token_type_embeddings): Embedding(2, 384)
        (LayerNorm): LayerNorm((384,), eps=1e-12, elementwise_affine=True)
        (dropout): Dropout(p=0.1, inplace=False)
      )
      (encoder): BertEncoder(
        (layer): ModuleList(
          (0-11): 12 x BertLayer(
            (attention): BertAttention(
              (self): BertSdpaSelfAttention(
                (query): Linear(in_features=384, out_features=384, bias=True)
                (key): Linear(in_features=384, out_features=384, bias=True)
                (value): Linear(in_features=384, out_features=384, bias=True)
                (dropout): Dropout(p=0.1, inplace=False)
              )
              (output): BertSelfOutput(
                (dense): Linear(in_features=384, out_features=384, bias=True)
                (LayerNorm): LayerNorm((384,), eps=1e-12, elementwise_affine=True)
                (dropout): Dropout(p=0.1, inplace=False)
              )
            )
            (intermediate): BertIntermediate(
              (dense): Linear(in_features=384, out_features=1536, bias=True)
              (intermediate_act_fn): GELUActivation()
            )
            (output): BertOutput(
              (dense): Linear(in_features=1536, out_features=384, bias=True)
              (LayerNorm): LayerNorm((384,), eps=1e-12, elementwise_affine=True)
              (dropout): Dropout(p=0.1, inplace=False)
            )
          )
        )
      )
      (pooler): BertPooler(
        (dense): Linear(in_features=384, out_features=384, bias=True)
        (activation): Tanh()
      )
    )
  )
)</code></pre>
</div>
</div>
<p>The <code>CollectionEncoder</code> will be used later on to encode the passages.</p>
<div class="cell" data-outputid="4a91eac1-1fcd-4304-9aa7-c9116e131bc4" data-execution_count="53">
<div class="sourceCode cell-code" id="cb121" style="background: #f1f3f5;"><pre class="sourceCode python code-with-copy"><code class="sourceCode python"><span id="cb121-1">encoder</span></code></pre></div>
…
