…
    902\n      965\n      3\n      3.474954\n    \n    \n      2\n      87\n      1173\n      5\n      4.206645\n    \n    \n      3\n      759\n      333\n      5\n      4.247213\n    \n    \n      4\n      109\n      1624\n      3\n      3.726794\n    \n    \n      5\n      363\n      743\n      1\n      1.774737\n    \n    \n      6\n      756\n      1216\n      5\n      4.058509\n    \n    \n      7\n      378\n      179\n      4\n      3.192873\n    \n    \n      8\n      18\n      141\n      3\n      3.296141\n    \n  \n\n\n\n\nlearn.model\n\nEmbeddingNN(\n  (embeds): ModuleList(\n    (0): Embedding(944, 74)\n    (1): Embedding(1665, 102)\n  )\n  (emb_drop): Dropout(p=0.0, inplace=False)\n  (bn_cont): BatchNorm1d(0, eps=1e-05, momentum=0.1, affine=True, track_running_stats=True)\n  (layers): Sequential(\n    (0): LinBnDrop(\n      (0): Linear(in_features=176, out_features=100, bias=False)\n      (1): ReLU(inplace=True)\n      (2): BatchNorm1d(100, eps=1e-05, momentum=0.1, affine=True, track_running_stats=True)\n    )\n    (1): LinBnDrop(\n      (0): Linear(in_features=100, out_features=50, bias=False)\n      (1): ReLU(inplace=True)\n      (2): BatchNorm1d(50, eps=1e-05, momentum=0.1, affine=True, track_running_stats=True)\n    )\n    (2): LinBnDrop(\n      (0): Linear(in_features=50, out_features=1, bias=True)\n    )\n    (3): SigmoidRange(low=0, high=5.5)\n  )\n)\n\n\nThe EmbeddingNN architecture extends the TabularModel class which we will explore in Chapter 9.\nThat finishes my review of Chapter 8, I’ll be working through the “Further Research” section in upcoming blog posts and associated videos:\n\n\nTake a look at all the differences between the Embedding
…
    "text": "Full Fine-Tuning with EleutherAi/pythia-70m\nFirst, I’ll fully fine-tune an existing pretrained model on a subset of the TinyStoriesInstruct dataset using the EleutherAI/pythia-70m model. I chose this model because larger models were giving me CUDA-out-of-memory errors even for small dataset and batch sizes.\n\nmodel_nm = 'EleutherAI/pythia-70m'\ntokz = AutoTokenizer.from_pretrained(model_nm)\ntokz.add_special_tokens({'pad_token': '[PAD]'})\ndef tok_func(x): return tokz(x[\"text\"])\n\n\nmodel = AutoModelForCausalLM.from_pretrained(model_nm)\n\n\nmodel\n\nGPTNeoXForCausalLM(\n  (gpt_neox): GPTNeoXModel(\n    (embed_in): Embedding(50304, 512)\n    (layers): ModuleList(\n      (0-5): 6 x GPTNeoXLayer(\n        (input_layernorm): LayerNorm((512,), eps=1e-05, elementwise_affine=True)\n        (post_attention_layernorm): LayerNorm((512,), eps=1e-05, elementwise_affine=True)\n        (attention): GPTNeoXAttention(\n          (rotary_emb): RotaryEmbedding()\n          (query_key_value): Linear(in_features=512, out_features=1536, bias=True)\n          (dense): Linear(in_features=512, out_features=512, bias=True)\n        )\n        (mlp): GPTNeoXMLP(\n          (dense_h_to_4h): Linear(in_features=512, out_features=2048, bias=True)\n          (dense_4h_to_h): Linear(in_features=2048, out_features=512, bias=True)\n          (act): GELUActivation()\n        )\n      )\n    )\n    (final_layer_norm): LayerNorm((512,), eps=1e-05, elementwise_affine=True)\n  )\n  (embed_out): Linear(in_features=512, out_features=50304, bias=False)\n)\n\n\n\nmodel.num_parameters()\n\n70426624\n\n\nI first trained the model on a very small subset (1000 rows) for both full-finetuning and LoRA to make sure it worked, then slowly increased the training and validation size until I got the CUDA out-of-memory error.\nFor small datasets, I noticed that the validation loss started increasing after 3 ep
…
    "text": "Fine-Tuning EleutherAI/pythia-70m with LoRA\nSince a LoRA model has less trainable parameters, I can increase the dataset size for the training. I’ll also see if I can train for more epochs without overfitting since I’m using more data.\n\ntrain_ds = ds['train'].select(range(256000))\neval_ds = ds['validation'].select(range(64000))\n\n\nlora_config = LoraConfig(task_type=TaskType.CAUSAL_LM)\nmodel = AutoModelForCausalLM.from_pretrained(model_nm)\nmodel = get_peft_model(model, lora_config)\nmodel.print_trainable_parameters()\n\ntrainable params: 98,304 || all params: 70,524,928 || trainable%: 0.13938901149959346\n\nmodel\n\nPeftModelForCausalLM(\n  (base_model): LoraModel(\n    (model): GPTNeoXForCausalLM(\n      (gpt_neox): GPTNeoXModel(\n        (embed_in): Embedding(50304, 512)\n        (layers): ModuleList(\n          (0-5): 6 x GPTNeoXLayer(\n            (input_layernorm): LayerNorm((512,), eps=1e-05, elementwise_affine=True)\n            (post_attention_layernorm): LayerNorm((512,), eps=1e-05, elementwise_affine=True)\n            (attention): GPTNeoXAttention(\n              (rotary_emb): RotaryEmbedding()\n              (query_key_value): Linear(\n                in_features=512, out_features=1536, bias=True\n                (lora_dropout): ModuleDict(\n                  (default): Identity()\n                )\n                (lora_A): ModuleDict(\n                  (default): Linear(in_features=512, out_features=8, bias=False)\n                )\n                (lora_B): ModuleDict(\n                  (default): Linear(in_features=8, out_features=1536, bias=False)\n                )\n                (lora_embedding_A): ParameterDict()\n                (lora_embedding_B): ParameterDict()\n              )\n              (dense): Linear(in_features=512, out_features=512, bias=True)\n            )\n            (mlp): GPTNeoXMLP(\n              (dense_h_to_4h): Linear(in_features=512, out_features=2048, bias=True)\n              (dense_4h_to_h): Linear(in_features=2048, out_features=512, bias=True)\n              (act): GELUActivation()\n            )\n          )\n        )\n        (final_layer_norm): LayerNorm((512,), eps=1e-05, elementwise_affine=True)\n      )\n      (embed_out): Linear(in_features=512, out_features=50304, bias=False)\n    )\n  )\n)\n\n\n\ntrainer = get_trainer(model, tokz, tok_func, train_ds, eval_ds, lr=5e-4, bs=16, epochs=4)\n\n\ntrainer.train()\n\n/opt/conda/lib/python3.10/site-packages/transformers/optimization.py:411: FutureWarning: This implementation of AdamW is deprecated and will be removed in a future version. Use the PyTorch implementation torch.optim
…
