…
    902\n      965\n      3\n      3.474954\n    \n    \n      2\n      87\n      1173\n      5\n      4.206645\n    \n    \n      3\n      759\n      333\n      5\n      4.247213\n    \n    \n      4\n      109\n      1624\n      3\n      3.726794\n    \n    \n      5\n      363\n      743\n      1\n      1.774737\n    \n    \n      6\n      756\n      1216\n      5\n      4.058509\n    \n    \n      7\n      378\n      179\n      4\n      3.192873\n    \n    \n      8\n      18\n      141\n      3\n      3.296141\n    \n  \n\n\n\n\nlearn.model\n\nEmbeddingNN(\n  (embeds): ModuleList(\n    (0): Embedding(944, 74)\n    (1): Embedding(1665, 102)\n  )\n  (emb_drop): Dropout(p=0.0, inplace=False)\n  (bn_cont): BatchNorm1d(0, eps=1e-05, momentum=0.1, affine=True, track_running_stats=True)\n  (layers): Sequential(\n    (0): LinBnDrop(\n      (0): Linear(in_features=176, out_features=100, bias=False)\n      (1): ReLU(inplace=True)\n      (2): BatchNorm1d(100, eps=1e-05, momentum=0.1, affine=True, track_running_stats=True)\n    )\n    (1): LinBnDrop(\n      (0): Linear(in_features=100, out_features=50, bias=False)\n      (1): ReLU(inplace=True)\n      (2): BatchNorm1d(50, eps=1e-05, momentum=0.1, affine=True, track_running_stats=True)\n    )\n    (2): LinBnDrop(\n      (0): Linear(in_features=50, out_features=1, bias=True)\n    )\n    (3): SigmoidRange(low=0, high=5.5)\n  )\n)\n\n\nThe EmbeddingNN architecture extends the TabularModel class which we will explore in Chapter 9.\nThat finishes my review of Chapter 8, I’ll be working through the “Further Research” section in upcoming blog posts and associated videos:\n\n\nTake a look at all the differences between the Embedding
…
    "text": "Full Fine-Tuning with EleutherAi/pythia-70m\nFirst, I’ll fully fine-tune an existing pretrained model on a subset of the TinyStoriesInstruct dataset using the EleutherAI/pythia-70m model. I chose this model because larger models were giving me CUDA-out-of-memory errors even for small dataset and batch sizes.\n\nmodel_nm = 'EleutherAI/pythia-70m'\ntokz = AutoTokenizer.from_pretrained(model_nm)\ntokz.add_special_tokens({'pad_token': '[PAD]'})\ndef tok_func(x): return tokz(x[\"text\"])\n\n\nmodel = AutoModelForCausalLM.from_pretrained(model_nm)\n\n\nmodel\n\nGPTNeoXForCausalLM(\n  (gpt_neox): GPTNeoXModel(\n    (embed_in): Embedding(50304, 512)\n    (layers): ModuleList(\n      (0-5): 6 x GPTNeoXLayer(\n        (input_layernorm): LayerNorm((512,), eps=1e-05, elementwise_affine=True)\n        (post_attention_layernorm): LayerNorm((512,), eps=1e-05, elementwise_affine=True)\n        (attention): GPTNeoXAttention(\n          (rotary_emb): RotaryEmbedding()\n          (query_key_value): Linear(in_features=512, out_features=1536, bias=True)\n          (dense): Linear(in_features=512, out_features=512, bias=True)\n        )\n        (mlp): GPTNeoXMLP(\n          (dense_h_to_4h): Linear(in_features=512, out_features=2048, bias=True)\n          (dense_4h_to_h): Linear(in_features=2048, out_features=512, bias=True)\n          (act): GELUActivation()\n        )\n      )\n    )\n    (final_layer_norm): LayerNorm((512,), eps=1e-05, elementwise_affine=True)\n  )\n  (embed_out): Linear(in_features=512, out_features=50304, bias=False)\n)\n\n\n\nmodel.num_parameters()\n\n70426624\n\n\nI first trained the model on a very small subset (1000 rows) for both full-finetuning and LoRA to make sure it worked, then slowly increased the training and validation size until I got the CUDA out-of-memory error.\nFor small datasets, I noticed that the validation loss started increasing after 3 ep
…
    "text": "Fine-Tuning EleutherAI/pythia-70m with LoRA\nSince a LoRA model has less trainable parameters, I can increase the dataset size for the training. I’ll also see if I can train for more epochs without overfitting since I’m using more data.\n\ntrain_ds = ds['train'].select(range(256000))\neval_ds = ds['validation'].select(range(64000))\n\n\nlora_config = LoraConfig(task_type=TaskType.CAUSAL_LM)\nmodel = AutoModelForCausalLM.from_pretrained(model_nm)\nmodel = get_peft_model(model, lora_config)\nmodel.print_trainable_parameters()\n\ntrainable params: 98,304 || all params: 70,524,928 || trainable%: 0.13938901149959346\n\nmodel\n\nPeftModelForCausalLM(\n  (base_model): LoraModel(\n    (model): GPTNeoXForCausalLM(\n      (gpt_neox): GPTNeoXModel(\n        (embed_in): Embedding(50304, 512)\n        (layers): ModuleList(\n          (0-5): 6 x GPTNeoXLayer(\n            (input_layernorm): LayerNorm((512,), eps=1e-05, elementwise_affine=True)\n            (post_attention_layernorm): LayerNorm((512,), eps=1e-05, elementwise_affine=True)\n            (attention): GPTNeoXAttention(\n              (rotary_emb): RotaryEmbedding()\n              (query_key_value): Linear(\n                in_features=512, out_features=1536, bias=True\n                (lora_dropout): ModuleDict(\n                  (default): Identity()\n                )\n                (lora_A): ModuleDict(\n                  (default): Linear(in_features=512, out_features=8, bias=False)\n                )\n                (lora_B): ModuleDict(\n                  (default): Linear(in_features=8, out_features=1536, bias=False)\n                )\n                (lora_embedding_A): ParameterDict()\n                (lora_embedding_B): ParameterDict()\n              )\n              (dense): Linear(in_features=512, out_features=512, bias=True)\n            )\n            (mlp): GPTNeoXMLP(\n              (dense_h_to_4h): Linear(in_features=512, out_features=2048, bias=True)\n              (dense_4h_to_h): Linear(in_features=2048, out_features=512, bias=True)\n              (act): GELUActivation()\n            )\n          )\n        )\n        (final_layer_norm): LayerNorm((512,), eps=1e-05, elementwise_affine=True)\n      )\n      (embed_out): Linear(in_features=512, out_features=50304, bias=False)\n    )\n  )\n)\n\n\n\ntrainer = get_trainer(model, tokz, tok_func, train_ds, eval_ds, lr=5e-4, bs=16, epochs=4)\n\n\ntrainer.train()\n\n/opt/conda/lib/python3.10/site-packages/transformers/optimization.py:411: FutureWarning: This implementation of AdamW is deprecated and will be removed in a future version. Use the PyTorch implementation torch.optim
…
he model. In that case, the or condition can still result in truth if bn_final is True.\nbn=use_bn and (i!=len(actns)-1 or bn_final)\n\nTrue and (True or False)\n\nTrue\n\n\n\nTrue and (False or True)\n\nTrue\n\n\nThe following code generates a LinBnDrop layer for each activation function, setting the inputs and outputs of the layer based on the values in the sizes list:\n\n_layers = [LinBnDrop(sizes[i], sizes[i+1], bn=use_bn and (i!=len(actns)-1 or bn_final), p=p, act=a,\n                     lin_first=lin_first) for i, (p,a) in enumerate(zip(ps+[0.], actns))]\n\n_layers\n\n[LinBnDrop(\n   (0): Linear(in_features=11, out_features=200, bias=True)\n   (1): ReLU(inplace=True)\n ),\n LinBnDrop(\n   (0): Linear(in_features=200, out_features=100, bias=True)\n   (1): ReLU(inplace=True)\n ),\n LinBnDrop(\n   (0): Linear(in_features=100, out_features=1, bias=True)\n )]\n\n\n\n\ny_range\nif y_range is not None: _layers.append(SigmoidRange(*y_range))\nThis line of code adds on a SigmoidRange function which limits the output values to the values defined in y_range.\nHere is what the function SigmoidRange(0,1) looks like for input values between -10 and 10:\n\ndef plot_function(f, tx=None, ty=None, title=None, min=-2, max=2, figsize=(6,4)):\n    x = torch.linspace(min,max, 100)\n    fig,ax = plt.subplots(figsize=figsize)\n    ax.plot(x,f(x))\n    if tx is not None: ax.set_xlabel(tx)\n    if ty is not None: ax.set_ylabel(ty)\n    if title is not None: ax.set_title(title)\n\n\nplot_function(SigmoidRange(0,1), min=-10, max=10)\n\n\n\n\n\n\n\n\n\nif y_range is not None: _layers.append(SigmoidRange(*y_range))\n\n\n_layers\n\n[LinBnDrop(\n   (0): Linear(in_features=11, out_features=200, bias=True)\n   (1): ReLU(inplace=True)\n ),\n LinBnDrop(\n   (0): Linear(in_features=200, out_features=100, bias=True)\n   (1): ReLU(inplace=True)\n ),\n LinBnDrop(\n   (0): Linear(in_features=100, out_features=1, bias=True)\n ),\n fastai.layers.SigmoidRange(low=0, high=1)]\n\n\n\n\nself.layers\nself.layers = nn.Sequential(*_layers)\nThe final piece to handling the layers in the model is to wrap them in a nn.Sequential model, so that inputs are passed sequentially to each layer in the list _layers.\n\nlayers = nn.Sequential(*_layers)\nlayers\n\nSequential(\n  (0): LinBnDrop(\n    (0): Linear(in_features=11, out_features=200, bias=True)\n    (1): ReLU(inplace=True)\n  )\n  (1): LinBnDrop(\n    (0): Linear(in_features=200, out_features=100, bias=True)\n    (1): ReLU(inplace=True)\n  )\n  (2): LinBnDrop(\n    (0): Linear(in_features=100, out_features=1, bias=True)\n  )\n  (3): fastai.layers.SigmoidRange(low=0, high=1)\n)"
  },
  {
    "objectID": "posts/2023-10-10-TabularModel/index.html#forward",
    "href": "posts/2023-10-10-TabularModel/index.html#forward",
    "title": "Understanding the fastai TabularModel Class",
    "section": "forward",
    "text": "forward\n\nif self.n_emb != 0:\nIn this example, n_emb is
…
\n\n\n\n\n0.242081"
  },
  {
    "objectID": "posts/2023-10-09-nn-rf-embeddings/index.html#neural-net-embeddings",
    "href": "posts/2023-10-09-nn-rf-embeddings/index.html#neural-net-embeddings",
    "title": "Using Neural Net Embeddings to Improve a Random Forest",
    "section": "Neural Net Embeddings",
    "text": "Neural Net Embeddings\nNow that the model is trained, let’s take a look at the embeddings that it created. The first dimension of each embedding roughly corresponds to the number of unique values in the corresponding categorical column:\n\nlearn.model.embeds\n\nModuleList(\n  (0): Embedding(72, 18)\n  (1): Embedding(7, 5)\n  (2): Embedding(3, 3)\n  (3): Embedding(75, 18)\n  (4): Embedding(3, 3)\n  (5): Embedding(178, 29)\n  (6): Embedding(5060, 190)\n  (7-8): 2 x Embedding(7, 5)\n  (9): Embedding(141, 26)\n  (10): Embedding(13, 7)\n  (11): Embedding(5, 4)\n  (12): Embedding(18, 8)\n  (13): Embedding(5, 4)\n)\n\n\n\nto_nn.train.xs[to_nn.cat_names].nunique()\n\nYearMade                71\nProductSize              7\nCoupler_System           3\nfiProductClassDesc      74\nGrouser_Tracks           3\nfiSecondaryDesc        176\nfiModelDesc           4965\nProductGroup             6\nEnclosure                7\nfiModelDescriptor      140\nHydraulics              13\nDrive_System             5\nTir
…
things, the first being the stem, the next being stages and so on).\n\nThe body does all the hard work of looking at the pixels and trying to find features and things like that. In this case it’s a convolutional neural network. At the very end of it it spits out a whole bunch of information about those pixels.\n\nthe head ((1): Sequential).\n\nthe head makes sense of what the body spits out and returns predictions. The head is pretty simple, the body is not.\n\n\nWe want to predict two things: what kind of rice it is and what disease it has. Currently the very last layer is a linear layer:\n(8): Linear(in_features=512, out_features=10, bias=False)\nA lineary layer is something that does a matrix product, with an input of 512 features and output of 10 features. A 512 x 10 matrix.\nLet’s grab the head (which is the index-1 thing in the model)\n\nh = m[1]\n\n\nh\n\nSequential(\n  (0): AdaptiveConcatPool2d(\n    (ap): AdaptiveAvgPool2d(output_size=1)\n    (mp): AdaptiveMaxPool2d(output_size=1)\n  )\n  (1): fastai.layers.Flatten(full=False)\n  (2): BatchNorm1d(1536, eps=1e-05, momentum=0.1, affine=True, track_running_stats=True)\n  (3): Dropout(p=0.25, inplace=False)\n  (4): Linear(in_features=1536, out_features=512, bias=False)\n  (5): ReLU(inplace=True)\n  (6): BatchNorm1d(512, eps=1e-05, momentum=0.1, affine=True, track_running_stats=True)\n  (7): Dropout(p=0.5, inplace=False)\n  (8): Linear(in_features=512, out_features=10, bias=False)\n)\n\n\nIs there a way to see the shape of the data as it flows through the model?\nYes, with learn.summary() (full output is too long so showing a snippet here). The 64 is because we are using a batch size of 64. For each image we are predicting 10 probabitilies (for 10 classes of disease).\nSequential (Input shape: 64 x 3 x 224 x 224)\n==============
…
